…
)</span><br><span class="line">model.add(Dropout(<span class="number">0.2</span>))</span><br><span class="line">model.add(GlobalAveragePooling2D())</span><br><span class="line">model.add(Dense(<span class="number">133</span> ,activation=<span class="string">'softmax'</span>))</span><br><span class="line">model.summary()</span><br></pre></td></tr></table></figure><pre><code>_________________________________________________________________Layer (type)                 Output Shape              Param #   =================================================================conv2d_1 (Conv2D)            (None, 224, 224, 3)       39        _________________________________________________________________max_pooling2d_2 (MaxPooling2 (None, 112, 112, 3)       0         _________________________________________________________________dropout_1 (Dropout)          (None, 112, 112, 3)       0         _________________________________________________________________conv2d_2 (Conv2D)            (None, 112, 112, 6)       78        _________________________________________________________________max_pooling2d_3 (MaxPooling2 (None, 56, 56, 6)         0         _________________________________________________________________dropout_2 (Dropout)          (None, 56, 56, 6)         0         _________________________________________________________________conv2d_3 (Conv2D)            (None, 54, 54, 16)        880       _________________________________________________________________max_pooling2d_4 (MaxPooling2 (None, 27, 27, 16)        0         _________________________________________________________________batch_normalization_1 (Batch (None, 27, 27, 16)        64        _________________________________________________________________activation_50 (Activation)   (None, 27, 27, 16)        0         _________________________________________________________________dropout_3 (Dropout)          (None, 27, 27, 16)        0         _________________________________________________________________global_average_pooling2d_1 ( (None, 16)                0         _________________________________________________________________dense_1 (Dense)              (None, 133)               2261      =================================================================Total params: 3,322Trainable params: 3,290Non-trainable params: 32_________________________________________________________________</code></pre><figure class="highlight python"><table><tr><td class="gutter"><pre><span class="line">1</span><br><span class="line">2</span><br><span class="line">3</span><br></pre></td><td class="co
…
