…
pout(0.2))model.add(Conv2D(filters=6, kernel_size=2, padding='same',activation='relu'))model.add(MaxPooling2D(pool_size=2))model.add(Dropout(0.2))model.add(Conv2D(16, (3, 3), strides=(1, 1), padding='valid'))model.add(MaxPooling2D((2, 2)))model.add(BatchNormalization())model.add(Activation('relu'))model.add(Dropout(0.2))model.add(GlobalAveragePooling2D())model.add(Dense(133 ,activation='softmax'))model.summary() _________________________________________________________________ Layer (type) Output Shape Param # ================================================================= conv2d_1 (Conv2D) (None, 224, 224, 3) 39 _________________________________________________________________ max_pooling2d_2 (MaxPooling2 (None, 112, 112, 3) 0 _________________________________________________________________ dropout_1 (Dropout) (None, 112, 112, 3) 0 _________________________________________________________________ conv2d_2 (Conv2D) (None, 112, 112, 6) 78 _________________________________________________________________ max_pooling2d_3 (MaxPooling2 (None, 56, 56, 6) 0 _________________________________________________________________ dropout_2 (Dropout) (None, 56, 56, 6) 0 _________________________________________________________________ conv2d_3 (Conv2D) (None, 54, 54, 16) 880 _________________________________________________________________ max_pooling2d_4 (MaxPooling2 (None, 27, 27, 16) 0 _________________________________________________________________ batch_normalization_1 (Batch (None, 27, 27, 16) 64 _________________________________________________________________ activation_50 (Activation) (None, 27, 27, 16) 0 _________________________________________________________________ dropout_3 (Dropout) (None, 27, 27, 16) 0 _________________________________________________________________ global_average_pooling2d_1 ( (None, 16) 0 _________________________________________________________________ dense_1 (Dense) (None, 133) 2261 ================================================================= Total params: 3,322 Trainable params: 3,290 Non-trainable params: 32 _________________________________________________________________ ## 编译模型model.compile(optimizer='rmsprop', loss='categorical_crossentropy', metrics=['accuracy']) 【练习】训练模型 问题 5:在下方代码单元训练模型。使用模型检查点（model checkpointing）来储存具有最低验证集 loss 的模型。 可选题：你也可以对训练集进行 数据增强，来优化模型的
…
